Project1/model_optimized.tflite (tflite, 26384 bytes, 11 tensors)

arith.constant f4 [95, 6]
-0.56023383 -0.57867646 -0.8612905 0.40988684 1.0409768 0.59523 -0.4716516 -0.56668925
0.36238596 -0.29142195 0.6330557 0.21232788 -0.89144444 0.14451492 -0.5814176 -1.550751
0.23681374 0.1846848 0.6032625 0.7098696 0.18446758 1.0945858 -0.038639456 -0.032422688
-0.26327193 -0.8244358 0.15782176 -1.0197995 0.21400088 -0.9565141 0.09833433 0.06914419
0.2377802 0.17107175 0.29025146 0.19300851 -0.43380466 -0.77311546 -0.8290126 0.3365421
-0.02769134 -1.0826976 -0.07245509 0.015119178 0.012220909 -0.86279875 -0.74909174 -0.387908
0.28630054 0.68134236 -0.35021636 -1.0806279 -1.2002807 0.5936437 -0.8189253 0.5273249
-0.61240804 -0.33054096 0.72337025 0.24922176 0.0440848 0.40979227 0.23331942 0.24186419
0.1649159 0.50137347 0.24088284 0.32548118 0.5147406 0.42193016 1.1884258 0.43390536
0.34767905 -0.5444813 0.40919527 -0.725275 0.6541688 -1.137075 -0.61137605 0.5355425
-0.4342747 -0.6208105 0.7358725 -0.5636541 -0.06635089 0.5660307 -0.0056478 -0.24406566
-1.2499031 0.6007953 0.18608807 0.19357246 0.1708699 0.29585862 0.91453815 0.29958883
0.16596863 0.25128222 -0.57028747 0.619871 -1.0821387 -0.20626846 -0.32837397 -0.1427365
0.19001785 0.5832765 -0.41280386 0.4733807 -0.017559767 1.2450898 0.8247622 -0.59940517
-0.35093826 0.23901968 0.7091591 -0.19282064 0.5015206 0.06481993 0.3860061 0.03741756
-0.56323946 0.4671948 -0.57785076 0.7562722 1.2530743 0.45205423 0.639754 -0.3015589
-0.20552959 -0.6514733 1.2140497 0.053090516 0.043138266 -0.6249251 0.20370416 0.32093942
0.9872929 0.32876667 0.03479708 0.0804491 0.0041920044 -0.08149903 -1.5347669 -0.1939558
-0.1685142 -0.040123172 -0.039229758 -0.2637683 -0.9486544 -0.18153903 -0.53188616 1.3310273
0.15537049 -0.27757764 0.018453 -1.0141999 0.3652117 -0.14081894 0.10877181 -0.64190304
0.1445824 -0.89413196 -0.14193349 -0.46640784 0.11622562 -0.0029789025 0.41375592 0.71022654
-0.50146586 -0.60550755 -0.07460757 0.7292581 -0.51196396 -0.24529305 0.02397553 -0.15171847
-0.40396795 -1.2505103 -0.9419474 -0.5100333 -0.7069461 0.4756947 0.41824672 0.68600184
-0.5983848 -0.4871941 0.05130266 -0.3546084 -0.024264276 -1.9336282 -0.16692376 -0.43697357
-0.2400318 0.036763117 0.10750144 0.16946813 0.2100443 0.3815601 -0.8987641 -0.0140574025
0.7134387 -0.065786615 -0.6954309 1.0583788 0.17696717 0.18753183 0.15777792 0.50522095
0.7988473 0.6899002 0.07300528 0.10356703 0.38129473 0.51383793 0.8703919 0.52688384
-0.021109138 -0.03805737 -0.24212591 -1.118587 -0.40742317 -0.21654479 -0.071345106 0.053812064
-0.18091923 -0.8773465 -1.4335024 0.05867159 -1.0492405 -1.2600179 -1.1453941 0.095177464
-1.2202351 0.17364545 0.43989334 0.6425677 0.83685243 -1.2163231 1.1438917 -0.67540336
0.028859403 0.0067843474 0.6406619 0.46943414 0.67524594 -0.0013429436 -0.08832159 0.43324682
0.23004505 0.7520314 -0.86902034 0.38151994 -0.4986045 -0.70555836 -0.78953576 -0.9683194
00000000: 7c6b 0fbf 2424 14bf 897d 5cbf b0dc d13e
00000010: ba3e 853f fe60 183f 527c f1be 8c12 11bf
00000020: a78a b93e 4235 95be f00f 223f 7b6c 593e
00000030: b435 64bf b8fb 133e c9d7 14bf 027f c6bf
00000040: 4d7f 723e 031e 3d3e 696f 1a3f 04ba 353f
00000050: 12e5 3c3e 631b 8c3f 6844 1ebd a7cd 04bd
00000060: 94cb 86be 390e 53bf 079c 213e ca88 82bf
00000070: 0c23 5b3e 1cde 74bf 8263 c93d 789b 8d3d
00000080: a77c 733e 6f2d 2f3e d79b 943e 06a4 453e
00000090: a51b debe e5ea 45bf 2b3a 54bf 3f4f ac3e
000000a0: f3d8 e2bc d695 8abf 5663 94bd 6eb6 773c
000000b0: 353a 483c 61e0 5cbf 7ac4 3fbf e19b c6be
000000c0: fc95 923e 746c 2e3f 8f4f b3be 0452 8abf
000000d0: cca2 99bf 09f9 173f 17a5 51bf c4fe 063f
000000e0: c6c6 1cbf aa3c a9be cb2e 393f fd33 7f3e
000000f0: 4392 343d 4bd0 d13e 49eb 6e3e 3fab 773e
00000100: b7df 283e 035a 003f fea9 763e 78a5 a63e
00000110: 0ac6 033f 3b07 d83e 561e 983f d828 de3e
00000120: fd02 b23e 2063 0bbf 0b82 d13e 9fab 39bf
00000130: 9b77 273f ac8b 91bf 2483 1cbf 5019 093f
00000140: 4159 debe 70ed 1ebf 2462 3c3f a34b 10bf
00000150: fae2 87bd 63e7 103f 2e11 b9bb 59ec 79be
00000160: d3fc 9fbf b9cd 193f df8d 3e3e dc37 463e
00000170: 85f8 2e3e c87a 973e 2c1f 6a3f b563 993e
00000180: aef3 293e 10a8 803e 5cfe 11bf deaf 1e3f
00000190: 8583 8abf 0a38 53be a220 a8be 8429 12be
000001a0: 0a94 423e 9c51 153f 075b d3be f55e f23e
000001b0: 80d9 8fbc 1a5f 9f3f 9e23 533f 9e72 19bf
000001c0: 2eae b3be 93c1 743e 738b 353f c672 45be
000001d0: a763 003f 50c0 843d 97a2 c53e 2843 193d
000001e0: 7630 10bf 2834 ef3e 07ee 13bf 0e9b 413f
000001f0: bd64 a03f a773 e73e ebc6 233f ee65 9abe
00000200: 5976 52be f4c6 26bf fb65 9b3f 7175 593d
00000210: c0b1 303d 17fb 1fbf d397 503e 2c52 a43e
00000220: 3abf 7c3f 1b54 a83e 6287 0e3d 7fc2 a43d
00000230: 155d 893b f7e8 a6bd 3e73 c4bf 599c 46be
00000240: fd8e 2cbe 3258 24bd 62af 20bd a30c 87be
00000250: 04db 72bf 5ee5 39be b129 08bf 1a5f aa3f
00000260: 7119 1f3e a81e 8ebe bf2a 973c 4dd1 81bf
00000270: 07fd ba3e d732 10be c1c3 de3d c253 24bf
00000280: 690d 143e d5e5 64bf 0357 11be 02cd eebe
00000290: b307 ee3d b139 43bb d1d7 d33e 68d1 353f
000002a0: 1160 00bf 8b02 1bbf dbcb 98bd a9b0 3a3f
000002b0: 1210 03bf 1a2e 7bbe 5568 c43c 165c 1bbe
000002c0: e3d4 cebe b910 a0bf 7723 71bf 8b91 02bf
000002d0: 6bfa 34bf 418e f33e 6f24 d63e d19d 2f3f
000002e0: bf2f 19bf 8171 f9be bd22 523d 3b8f b5be
000002f0: e0c5 c6bc 2181 f7bf 10ee 2abe 00bb dfbe
00000300: e5ca 75be ec94 163d b729 dc3d 0e89 2d3e
00000310: da15 573e d85b c33e 6715 66bf 0551 66bc
00000320: eba3 363f 22bb 86bd c207 32bf f578 873f
00000330: e236 353e 5808 403e 8990 213e 2956 013f
00000340: 4281 4c3f 4d9d 303f cb83 953d f31a d43d
00000350: 1039 c33e e28a 033f 01d2 5e3f dce1 063f
00000360: 12ed acbc 0be2 1bbd dbef 77be dc2d 8fbf
00000370: c599 d0be ebbd 5dbe 621d 92bd 0a6a 5c3d
00000380: e442 39be c899 60bf 027d b7bf 9f51 703d
00000390: 834d 86bf 4448 a1bf 469c 92bf 67ec c23d
000003a0: aa30 9cbf 1dd0 313e b339 e13e 517f 243f
000003b0: f63b 563f 7ab0 9bbf 0b6b 923f 3ce7 2cbf
000003c0: 8e6a ec3c 3b4f de3b 6b02 243f ac59 f03e
000003d0: ebdc 2c3f b605 b0ba f3e1 b4bd 87d2 dd3e
000003e0: ee90 6b3e 2185 403f 1e78 5ebf 9556 c33e
000003f0: 1749 ffbe 799f 34bf 041f 4abf c8e3 77bf

arith.constant1 f4 [95]
-0.1798439 -0.3473223 -1.4736063 -0.19589655 -0.7188805 0.02031082 -0.450922 -0.601394
-0.36304462 -0.55740035 0.048906714 -0.0697743 -0.44101208 -0.59652656 -0.09240928 -0.170543
-0.2033781 -0.054777563 -0.10551787 -0.0071574748 -0.11934522 0.035454065 -0.05431342 -0.958888
-0.6023239 -0.031322546 -0.61501545 -0.042311534 -0.09286237 -0.64351326 -0.42222926 -1.5257909
-0.04654339 -0.0783259 -0.054545492 -0.15398118 -0.56023884 -0.7122771 -1.2072132 -0.7721677
0.0717825 -0.55385166 -1.1848499 -0.67170376 0.05916652 -0.18278334 -1.1300367 -0.18561533
-0.5901677 -0.8141847 -1.2771248 -0.1720889 -0.02206862 -0.0703581 -0.005341321 -0.06403825
-0.539632 -0.24672595 -0.08373496 -0.54835945 -0.6872655 -0.19601673 -0.16107321 -1.2131941
-0.107310385 -0.84534895 0.0014587343 -0.03704825 -0.30967695 -1.116908 -0.41425008 -0.6635868
-0.0616827 -0.05769831 -0.3553094 -0.05169773 -0.706075 0.04118374 -2.3107462 -0.95850646
-0.104897365 -0.5072791 0.060812443 -0.11398195 -0.036589265 -0.70087075 -0.31670654 -1.6530536
-0.7420795 -0.3960889 -2.0128753 -0.48744887 -0.4436167 -0.13942403 -0.54664963
00000000: 0029 38be 3ad4 b1be 229f bcbf 1b99 48be
00000010: 8d08 38bf e062 a63c 40df e6be f5f4 19bf
00000020: fce0 b9be cab1 0ebf 6852 483d d4e5 8ebd
00000030: 56cc e1be f7b5 18bf 1441 bdbd d3a2 2ebe
00000040: 5942 50be 705e 60bd c119 d8bd 4089 eabb
00000050: 446b f4bd 4838 113d c077 5ebd af79 75bf
00000060: e631 1abf 124c 00bd a771 1dbf dc4e 2dbd
00000070: a02e bebd 49bd 24bf 6f2e d8be 1e4d c3bf
00000080: 48a4 3ebd 5469 a0bd 186b 5fbd 3ead 1dbe
00000090: d06b 0fbf cb57 36bf f685 9abf c8ac 45bf
000000a0: b402 933d 39c9 0dbf 29a9 97bf c7f4 2bbf
000000b0: 9858 723d 8e2b 3bbe 0ba5 90bf f211 3ebe
000000c0: 3b15 17bf 696e 50bf d378 a3bf 1338 30be
000000d0: 40c9 b4bc e817 90bd 4006 afbb 7c26 83bd
000000e0: 5325 0abf baa5 7cbe 3c7d abbd 4961 0cbf
000000f0: a2f0 2fbf 9cb8 48be 60f0 24be f249 9bbf
00000100: 8cc5 dbbd ca68 58bf 0033 bf3a e8bf 17bd
00000110: fa8d 9ebe d7f6 8ebf 9618 d4be d3e0 29bf
00000120: 00a7 7cbd 1055 6cbd 1deb b5be 00c1 53bd
00000130: 55c1 34bf 48b0 283d 44e3 13c0 ae60 75bf
00000140: 6ed4 d6bd 0bdd 01bf 7816 793d 5e6f e9bd
00000150: a0de 15bd 446c 33bf 5c27 a2be 4397 d3bf
00000160: ecf8 3dbf 2acc cabe f3d2 00c0 e692 f9be
00000170: ba21 e3be 2cc5 0ebe 3bf1 0bbf

arith.constant2 f4 [95]
0.92276144 1.7988243 1.7886431 0.67714846 2.1131966 13.401762 3.311705 4.9071493
0.7404001 1.1851214 2.6979337 2.71557 0.7557269 1.0145265 0.95994526 3.6016634
1.2814766 1.801768 0.4845997 1.062252 0.9627926 0.71039593 1.5406191 2.0327842
10.958472 0.5753554 1.3276799 1.7363406 1.3498262 2.40421 0.95749617 3.2949822
9.3696785 0.7025714 2.3929327 2.7718756 13.234601 2.6509185 1.519346 0.7334103
2.0306132 0.9086272 21.502787 1.2129067 0.76600844 1.4438063 1.1361456 1.3934015
1.8625962 2.5376055 2.6071496 0.8440983 1.0305355 1.4750237 0.8439181 0.89894986
1.2215942 0.78971 0.7573044 0.6684694 4.649201 0.97673583 1.4090815 24.556444
1.0045283 31.609463 0.9097675 1.33561 0.63053894 2.6569374 1.3440173 4.7822285
3.0831816 2.2075906 1.1502568 1.9108078 2.211594 2.3167524 5.118266 2.6134472
1.1567712 0.7529481 0.8465956 0.74135315 0.72462 5.9412656 1.0601511 8.296839
0.858352 0.6669534 5.9393144 1.9647251 0.92418605 1.7494541 0.74884874
00000000: 183a 6c3f e03f e63f 42f2 e43f 9a59 2d3f
00000010: 9d3e 0740 9e6d 5641 faf2 5340 5e07 9d40
00000020: dc8a 3d3f 0fb2 973f f2aa 2c40 e6cb 2d40
00000030: 5177 413f 01dc 813f f9be 753f a781 6640
00000040: 6d07 a43f 55a0 e63f 741d f83e e0f7 873f
00000050: 9379 763f 82dc 353f 0233 c53f 2319 0240
00000060: e755 2f41 7e4a 133f 6af1 a93f 6940 de3f
00000070: 1bc7 ac3f 94de 1940 781e 753f fde0 5240
00000080: 34ea 1541 b8db 333f cf25 1940 6966 3140
00000090: edc0 5341 a6a8 2940 ee79 c23f c7c0 3b3f
000000a0: 91f5 0140 cb9b 683f b505 ac41 8740 9b3f
000000b0: 2119 443f a5ce b83f 386d 913f fb5a b23f
000000c0: 8d69 ee3f 2168 2240 8adb 2640 d416 583f
000000d0: 96e8 833f 94cd bc3f 040b 583f 9421 663f
000000e0: 335d 9c3f 6f2a 4a3f b3de 413f d020 2b3f
000000f0: 41c6 9440 5c0b 7a3f c85c b43f 9973 c441
00000100: 6294 803f 2ee0 fc41 86e6 683f 45f5 aa3f
00000110: 006b 213f 430b 2a40 c208 ac3f 0408 9940
00000120: d952 4540 2a49 0d40 9d3b 933f 5a95 f43f
00000130: c28a 0d40 ac45 1440 d6c8 a340 b842 2740
00000140: 1411 943f 35c1 403f 7dba 583f 52c9 3d3f
00000150: b280 393f d91e be40 08b3 873f dabf 0441
00000160: f5bc 5b3f 75bd 2a3f dd0e be40 1d7c fb3f
00000170: 7597 6c3f 1dee df3f 8db4 3f3f

arith.constant3 f4 [75]
0.030634498 -0.30861437 0.3687779 -0.020247657 0.05157696 0.22649342 0.22540729 0.35809457
0.6646411 -0.26404417 0.5314651 0.15943791 0.6486078 0.13811873 0.12809229 0.06877171
0.6724651 -0.053326048 -0.13702743 0.16118883 0.9099964 0.19987017 0.07831818 -0.2773406
-0.09641072 0.42382425 0.44581217 0.0060397685 0.31903648 0.029161096 0.13941701 0.043329716
-0.03486693 0.4465189 0.24745087 0.63601714 -0.01349577 -0.23382735 0.10924185 0.3030117
0.6825167 -0.20416372 0.39126498 -0.26739028 0.104102254 -0.040767632 0.2976954 -0.071732536
0.011972829 -0.210184 0.12616004 0.5382258 -0.15729226 0.23179382 -0.11637593 -0.0755361
0.0128207775 -0.24982692 0.1632723 -0.08976431 0.71981674 0.071879566 0.036025126 0.5052904
0.065157466 0.69666916 0.2024638 0.025689287 0.5625167 0.34983733 0.5906695 0.12582773
0.3390549 0.66960967 -0.061149903
00000000: 33f5 fa3c b402 9ebe 75d0 bc3e 6ade a5bc
00000010: 5d42 533d e4ed 673e 2bd1 663e 2c58 b73e
00000020: eb25 2a3f cc30 87be 190e 083f b143 233e
00000030: 290b 263f ff6e 0d3e a02a 033e 2fd8 8c3d
00000040: ac26 2c3f 6a6c 5abd eb50 0cbe af0e 253e
00000050: 86f5 683f c4aa 4c3e 4865 a03d 96ff 8dbe
00000060: fc72 c5bd 7eff d83e 7e41 e43e 40e9 c53b
00000070: c058 a33e 40e3 ee3c 55c3 0e3e 807a 313d
00000080: a0d0 0ebd 209e e43e c363 7d3e 05d2 223f
00000090: 5d1d 5dbc 7070 6fbe 31ba df3d 5924 9b3e
000000a0: 6ab9 2e3f 4b10 51be e253 c83e 61e7 88be
000000b0: 9033 d53d f6fb 26bd 886b 983e 82e8 92bd
000000c0: af29 443c 793a 57be 1930 013e 2bc9 093f
000000d0: 3911 21be 5c5b 6d3e 8156 eebd acb2 9abd
000000e0: 3d0e 523c a1d2 7fbe db30 273e 5ad6 b7bd
000000f0: e945 383f 9835 933d 158f 133d b65a 013f
00000100: 4771 853d e958 323f ac52 4f3e 5772 d23c
00000110: 1801 103f e11d b33e 1e36 173f fcd8 003e
00000120: 9b98 ad3e 8a6b 2b3f 5278 7abd

arith.constant4 f4 [95]
0.1339792 -0.2054781 0.28569168 -0.0723945 -0.10518223 -0.884046 -0.34057638 -0.36059287
-0.11131845 -0.08264806 -0.69405663 -1.422474 0.22328855 0.06142816 -0.2462675 -1.1375778
-0.25716367 -0.3669003 0.07257678 -0.25417495 -0.2471537 -0.21987118 -0.23706351 -0.068022296
-0.4506111 -0.09852933 0.12572972 -0.3267027 -0.1572979 -0.34889218 0.07928877 -0.19883843
-0.56534743 0.039891496 -0.64550364 -0.7826378 -0.44193077 -0.4570017 -0.13090196 0.23640049
-0.56287324 0.10416944 -0.535457 -0.061205 -0.45157248 -0.21594805 0.5654333 0.0032041091
-0.23417413 -0.23174296 -0.037239045 0.14263366 -0.24475251 -0.27496353 -0.31403422 -0.051884014
-0.0884715 0.020995125 0.16440672 0.08082258 -0.36128873 -0.04445707 -0.11506132 -0.76434183
-0.05433269 -0.4737527 -0.37884298 -0.3140098 0.028603593 -0.10075444 -0.79141057 -0.22235413
-0.8805622 -0.61786777 0.057600692 -0.847782 -0.46771333 -1.1766614 -0.12800142 -0.26545796
-0.038635574 0.20394482 -0.43787485 0.010611999 -0.19708973 -0.3799333 -0.15852292 -0.22003828
0.35576022 0.17636399 -0.046252634 -0.08010838 0.16129738 -0.10278926 0.13374898
00000000: d831 093e da68 52be 2e46 923e 9143 94bd
00000010: c869 d7bd d750 62bf 0760 aebe a19f b8be
00000020: edfa e3bd 6343 a9bd b2ad 31bf a113 b6bf
00000030: c1a5 643e 189c 7b3d 8c2d 7cbe 269c 91bf
00000040: f5aa 83be 5bda bbbe 23a3 943d 3823 82be
00000050: dc15 7dbe e925 61be c7c0 72be 464f 8bbd
00000060: 80b6 e6be bfc9 c9bd 4bbf 003e 9445 a7be
00000070: b312 21be ffa1 b2be 2762 a23d 4d9c 4bbe
00000080: 9cba 10bf 4465 233d ba3f 25bf f35a 48bf
00000090: c044 e2be 20fc e9be 2a0b 06be f812 723e
000000a0: 7618 10bf ca56 d53d b613 09bf 18b2 7abd
000000b0: 8234 e7be 7c21 5dbe 3dc0 103f 08fc 513b
000000c0: 58cb 6fbe 074e 6dbe f887 18bd 8f0e 123e
000000d0: 67a0 7abe 05c8 8cbe 18c9 a0be 5584 54bd
000000e0: 8c30 b5bd f8fd ab3c 3c5a 283e 4f86 a53d
000000f0: d6fa b8be 9e18 36bd 45a5 ebbd e8ab 43bf
00000100: f48b 5ebd b78f f2be b5f7 c1be e4c5 a0be
00000110: 1552 ea3c 5858 cebd e299 4abf cdb0 63be
00000120: 866c 61bf 952c 1ebf b4ee 6b3d 3e08 59bf
00000130: 1f78 efbe d79c 96bf ce12 03be 1bea 87be
00000140: 5640 1ebd e9d6 503e 2231 e0be f3dd 2d3c
00000150: e4d1 49be 9e86 c2be d553 22be b751 61be
00000160: 3426 b63e c398 343e 6773 3dbd dd0f a4bd
00000170: 242b 253e 2d83 d2bd 7ef5 083e

arith.constant5 f4 [95]
-0.36625448 0.098458245 0.36313254 0.53814286 0.29824126 0.8486999 1.6197137 0.5199775
-0.20957099 -0.005549456 0.27992892 0.41960895 0.23085563 0.25837627 0.9445178 0.45798326
0.5622749 0.29216313 0.30987343 0.30597335 0.2483407 -0.23495688 -0.12934957 -0.442695
1.3612692 -0.50565296 0.3818275 -0.14181441 0.43639034 -0.17020312 0.24841683 0.5059333
0.614393 0.7665673 0.6941323 -0.01587018 0.737009 -0.31498432 0.4076853 0.0050225533
0.47834933 0.33318302 1.1537359 -0.7129616 0.11328846 0.14952935 0.5400287 -0.3795379
0.58952796 -0.55322295 0.6810246 0.024389314 1.0581235 -0.09202476 0.25720716 0.72334784
0.2272512 -0.37071052 0.44313395 0.09465297 -0.2963777 -0.45527208 0.19273284 0.97214955
0.008756807 1.4171928 0.22128513 0.19440551 0.121936396 0.79410565 -0.060366 0.63565075
0.5344099 0.11178746 0.0032078412 0.19861378 -0.1374625 0.39232597 0.4125066 -0.44650668
0.3980455 0.18042518 0.42383692 0.44973966 0.431078 -0.10072693 -0.014554277 0.7362519
0.37091744 0.36835274 0.6391704 -0.55591494 -0.34198844 0.04657043 -0.03763201
00000000: b585 bbbe 7aa4 c93d 82ec b93e bbc3 093f
00000010: 14b3 983e 6644 593f c752 cf3f 3f1d 053f
00000020: c799 56be 36d8 b5bb d852 8f3e fcd6 d63e
00000030: 6b65 6c3e e549 843e ebcb 713f c87c ea3e
00000040: 3ff1 0f3f 6896 953e bba7 9e3e 8aa8 9c3e
00000050: 064d 7e3e 8998 70be 3774 04be eba8 e2be
00000060: 123e ae3f 7972 01bf e57e c33e cc37 11be
00000070: 8e6e df3e ba49 2ebe fb60 7e3e d884 013f
00000080: dc48 1d3f c13d 443f a8b2 313f 2e02 82bc
00000090: 9fac 3c3f a045 a1be 21bc d03e 3b94 a43b
000000a0: 34ea f43e f796 aa3e 9ead 933f a784 36bf
000000b0: c803 e83d 391e 193e 523f 0a3f cb52 c2be
000000c0: 4eeb 163f 05a0 0dbf a157 2e3f 19cc c73c
000000d0: 9770 873f 7a77 bcbd a8b0 833e 532d 393f
000000e0: 8ab4 683e c5cd bdbe 74e2 e23e 6bd9 c13d
000000f0: d1be 97be 6c19 e9be c25b 453e cbde 783f
00000100: b678 0f3c 9366 b53f 9298 623e 3d12 473e
00000110: cab9 f93d 824a 4b3f 5742 77bd 02ba 223f
00000120: 16cf 083f d3f0 e43d a53a 523b 6961 4b3e
00000130: f8c2 0cbe f3de c83e 1134 d33e 869c e4be
00000140: 9fcc cb3e 61c1 383e 2701 d93e 4744 e63e
00000150: 41b6 dc3e ec49 cebd 1075 6ebc 017b 3c3f
00000160: e4e8 bd3e bb98 bc3e aca0 233f 7150 0ebf
00000170: 1c19 afbe a3c0 3e3d 0624 1abd

arith.constant6 f4 [95]
2.9699976 1.8193214 5.112371 3.4057865 1.1913247 -1.9510945 -0.8303814 2.8754575
1.7597526 2.546743 0.92415214 4.391377 -0.7499247 3.21469 2.1441 -1.5560315
3.2871447 3.1265478 0.9821089 2.2812939 2.857311 1.9003762 2.227057 3.0146625
1.6655337 1.2706188 2.5519562 1.0694284 3.1416178 1.5858803 4.7491927 2.51779
2.9276545 2.184096 2.8920822 -2.0084887 -0.13891684 2.048018 1.5966817 3.1529915
2.4198868 0.69245636 1.352734 3.59977 -1.8967106 2.63992 -1.1146531 1.0385034
-2.2122166 0.3072822 2.17014 2.334286 1.5731804 3.613126 3.0229282 1.5634893
0.58913624 3.0150332 2.6163762 4.9133873 2.0463889 -0.5032429 2.0505176 2.3599806
3.378733 1.1329069 0.75662965 1.2535136 -1.6430362 1.348599 2.8440309 2.1644928
2.4613647 1.3590667 2.7507167 0.23179226 3.1238937 0.29600084 4.6602364 1.6882702
3.4873924 -1.6533693 1.7815105 0.7996118 1.7531893 3.2990744 -0.34552142 1.2860849
2.5119996 -0.5760858 3.8468497 3.7254891 3.510423 1.5988998 1.9609047
00000000: 7114 3e40 86df e83f 8b98 a340 68f8 5940
00000010: 547d 983f 77bd f9bf e093 54bf 7f07 3840
00000020: 933f e13f d6fd 2240 3c95 6c3f 2986 8c40
00000030: 11fb 3fbf 7bbd 4d40 ef38 0940 0a2c c7bf
00000040: 9460 5240 5c19 4840 7d6b 7b3f b800 1240
00000050: 2fde 3640 873f f33f 1a88 0e40 3bf0 4040
00000060: 3530 d53f a3a3 a23f 4053 2340 08e3 883f
00000070: 4410 4940 20fe ca3f 63f9 9740 7923 2140
00000080: b15e 3b40 3bc8 0b40 e017 3940 148b 00c0
00000090: 3740 0ebe ba12 0340 1160 cc3f 9dca 4940
000000a0: 6ddf 1a40 d244 313f 6326 ad3f a262 6640
000000b0: 6ac7 f2bf 73f4 2840 f4ac 8ebf aeed 843f
000000c0: f594 0dc0 1854 9d3e 93e3 0a40 f164 1540
000000d0: fa5d c93f 753d 6740 a877 4140 6b20 c83f
000000e0: a2d1 163f 4ef6 4040 b572 2740 783a 9d40
000000f0: 09f8 0240 87d4 00bf ae3b 0340 ec09 1740
00000100: 293d 5840 1803 913f 7bb2 413f 2273 a03f
00000110: 034f d2bf e49e ac3f 9a04 3640 0d87 0a40
00000120: 0087 1d40 e6f5 ad3f be0b 3040 f35a 6d3e
00000130: e0ed 4740 6c8d 973e a820 9540 3d19 d83f
00000140: 7031 5f40 9ba1 d3bf 8908 e43f 5cb3 4c3f
00000150: 8268 e03f 0924 5340 2fe8 b0be 6e9e a43f
00000160: 9ac4 2040 5c7a 13bf c932 7640 6a6e 6e40
00000170: c5aa 6040 c0a8 cc3f edfe fa3f

arith.constant7 f4 [6, 95]
-0.008653047 -0.020428713 0.0050878543 0.0154013485 0.023418086 0.021935022 -0.0062035033 -0.008585654
-0.012728281 0.020473022 0.013449672 0.003839928 0.008078547 -0.0135836955 0.008471534 -0.008485269
0.0019102196 0.012452255 0.014597677 -0.01379895 -0.02385583 -0.017737428 0.021429878 -0.019384524
0.012551275 -0.012574705 -0.013128212 0.012681782 0.023073874 -0.002525311 0.0025742142 -0.0017451363
0.012526325 -0.012030267 0.019885536 0.015115187 -0.007998359 -0.0075473106 0.013073091 2.8074619e-05
0.016653052 -0.010532095 -0.009436281 0.02349502 0.010858294 0.0076034716 0.010985401 -0.011309302
0.016262723 0.011016937 0.01660397 -0.024301082 0.013808594 0.0040346957 -0.00736997 -0.018714746
0.0100383535 -0.0074685477 -0.007876797 -0.005829942 0.013237891 0.022090642 0.035104245 -0.007571635
-0.00019936418 0.00011292513 -0.011642337 -0.010044696 0.015143363 -0.0077236956 -0.009877558 0.019813722
-0.0030915053 -0.0073579876 -0.014067514 -0.005455257 -0.0050048335 -0.0090178335 -0.0013589372 -0.013163385
0.028073052 0.010305674 -0.008320177 -0.0073658912 -0.005863909 -0.007163736 0.01634203 -0.011781646
-0.022643363 0.02800534 0.011351777 0.0037873671 0.01956471 -0.009762016 -0.011995095 0.03659375
0.025148174 -0.013349087 -0.012705994 -0.028405959 -0.016734459 -0.022422064 -0.014196727 0.02316751
-0.018783066 -0.013063896 -0.0013218647 0.015188815 0.032148622 0.025824431 -0.01918748 0.024493342
0.0014263735 -0.020217665 0.045831528 -0.016364245 -0.019676002 -0.013513013 -0.0140590165 0.021255754
0.02772494 0.04715882 0.026580581 -0.016087038 -0.023693167 -0.005276706 -0.010681654 0.023018057
0.03302649 -0.011788094 0.0145333195 0.017302152 -0.008737671 0.026647672 -0.015653485 -0.013805032
0.025479272 0.027663728 -0.0017645521 0.015562108 0.01976287 0.018535657 -0.016474435 -0.013021748
0.01307556 -0.01985086 -0.018519355 0.018331774 0.019253701 -0.004555965 -0.009743009 0.021056507
0.03764931 0.033782534 -0.008738594 -0.012947318 -0.020743735 -0.0046761343 -0.006462234 0.035803843
0.04992283 0.023219675 0.0240236 0.023237241 0.027330423 -0.019848458 0.02291931 -0.008427085
0.027461126 -0.020928165 -0.010285638 -0.00485906 0.025669936 -0.0036204357 0.03763885 -0.014721622
0.015115543 -0.018142803 -0.020062258 -0.0044585 -0.0049941316 -0.017828302 -0.023968069 0.03583409
-0.0149445385 0.010071949 -0.0009319774 -0.0137931155 -0.013351611 -0.022539286 -0.00865304 -0.020428717
0.0050878534 0.015401348 0.023418084 0.02193502 -0.006203503 -0.008585653 -0.012728278 0.020473024
0.013449671 0.0038399284 0.008078547 -0.013583692 0.008471534 -0.008485269 0.0019102199 0.012452259
0.014597675 -0.013798949 -0.02385583 -0.01773743 0.02142988 -0.019384524 0.012551278 -0.01257471
-0.013128213 0.012681782 0.023073869 -0.0025253114 0.0025742124 -0.0017451353 0.012526331 -0.012030267
0.019885538 0.015115186 -0.007998357 -0.0075473115 0.013073089 2.807351e-05 0.016653052 -0.010532095
-0.009436284 0.02349502 0.010858294 0.0076034707 0.0109854 -0.011309297 0.016262723 0.011016936
0.016603969 -0.024301087 0.013808595 0.004034694 -0.007369969 -0.018714743 0.010038353 -0.0074685486
-0.007876794 -0.0058299424 0.01323789 0.02209064 0.03510424 -0.007571635 -0.00019936867 0.0001129277
00000000: 82c5 0dbc 1e5a a7bc 04b8 a63b f055 7c3c
00000010: 49d7 bf3c 13b1 b33c c246 cbbb d8aa 0cbc
00000020: 488a 50bc 0ab7 a73c 035c 5c3c 4da7 7b3b
00000030: e25b 043c 268e 5ebc 30cc 0a3c cc05 0bbc
00000040: 5560 fa3a 8b04 4c3c 182b 6f3c fe14 62bc
00000050: 4d6d c3bc 154e 91bc b68d af3c 4bcc 9ebc
00000060: dda3 4d3c 2306 4ebc b617 57bc 40c7 4f3c
00000070: 6c05 bd3c b07f 25bb 26b4 283b 0fbd e4ba
00000080: 373b 4d3c 991a 45bc fee6 a23c b0a5 773c
00000090: 8d0b 03bc 6e4f f7bb 8530 563c c981 eb37
000000a0: fb6b 883c cf8e 2cbc a29a 1abc a178 c03c
000000b0: fce6 313c 8b26 f93b 1dfc 333c a74a 39bc
000000c0: 6739 853c 6280 343c 0d05 883c 1013 c7bc
000000d0: 713d 623c 7b35 843b ca7f f1bb ab4f 99bc
000000e0: e877 243c b8ba f4bb ae0d 01bc 1909 bfbb
000000f0: bde3 583c 6ff7 b43c 78c9 0f3d 7a1b f8bb
00000100: 6a0c 51b9 38d2 ec38 80bf 3ebc 8292 24bc
00000110: de1b 783c 0e17 fdbb 7bd5 21bc 6350 a23c
00000120: da9a 4abb 461b f1bb 6e7b 66bc 03c2 b2bb
00000130: 96ff a3bb 89bf 13bc 5e1e b2ba 3dab 57bc
00000140: 75f9 e53c 21d9 283c 5a51 08bc 935d f1bb
00000150: 0926 c0bb c6bd eabb b9df 853c ce07 41bc
00000160: 937e b9bc 746b e53c cefc 393c 7a35 783b
00000170: 2c46 a03c ddf0 1fbc 1387 44bc 54e3 153d
00000180: 8b03 ce3c 21b6 5abc cd2c 50bc 9db3 e8bc
00000190: b416 89bc 7aae b7bc 6499 68bc cac9 bd3c
000001a0: f2de 99bc f409 56bc 6b42 adba 82da 783c
000001b0: 46ae 033d c28d d33c 102f 9dbc 43a6 c83c
000001c0: 27f5 ba3a 849f a5bc d7b9 3b3d 4f0e 86bc
000001d0: 912f a1bc af65 5dbc ca57 66bc 8c20 ae3c
000001e0: 6a1f e33c 9b29 413d 85bf d93c f7c8 83bc
000001f0: 2c18 c2bc 38e8 acbb 1b02 2fbc 5d90 bc3c
00000200: c946 073d da22 41bc 291d 6e3c 3ebd 8d3c
00000210: 7328 0fbc 384c da3c bd3b 80bc 802e 62bc
00000220: e8b9 d03c 0b9f e23c 8b48 e7ba 36f8 7e3c
00000230: bee5 a13c 17d8 973c 65f5 86bc 2b59 55bc
00000240: e03a 563c 459e a2bc e7b5 97bc 842c 963c
00000250: f0b9 9d3c 344a 95bb 24a1 1fbc b27e ac3c
00000260: 2a36 1a3d 8e5f 0a3d 522c 0fbc fd20 54bc
00000270: c4ee a9bc 423a 99bb 26c1 d3bb 0da7 123d
00000280: e27b 4c3d 3037 be3c 24cd c43c 075c be3c
00000290: 0de4 df3c 3c99 a2bc 47c1 bb3c c211 0abc
000002a0: 28f6 e03c 8b71 abbc 1885 28bc c038 9fbb
000002b0: c249 d23c d544 6dbb 322b 1a3d f532 71bc
000002c0: 2fa7 773c 37a0 94bc 9b59 a4bc 9c18 92bb
000002d0: d0a5 a3bb a90c 92bc af58 c4bc c4c6 123d
000002e0: f0d9 74bc d104 253c f24f 74ba 85fc 61bc
000002f0: b7c0 5abc 4fa4 b8bc 7bc5 0dbc 205a a7bc
00000300: 02b8 a63b ef55 7c3c 48d7 bf3c 12b1 b33c
00000310: c146 cbbb d7aa 0cbc 448a 50bc 0bb7 a73c
00000320: 025c 5c3c 4fa7 7b3b e25b 043c 228e 5ebc
00000330: 30cc 0a3c cc05 0bbc 5860 fa3a 8f04 4c3c
00000340: 162b 6f3c fd14 62bc 4d6d c3bc 164e 91bc
00000350: b78d af3c 4bcc 9ebc e0a3 4d3c 2806 4ebc
00000360: b717 57bc 40c7 4f3c 6905 bd3c b27f 25bb
00000370: 1eb4 283b 06bd e4ba 3d3b 4d3c 991a 45bc
00000380: ffe6 a23c afa5 773c 8a0b 03bc 704f f7bb
00000390: 8230 563c 677f eb37 fb6b 883c cf8e 2cbc
000003a0: a59a 1abc a178 c03c fce6 313c 8926 f93b
000003b0: 1bfc 333c a14a 39bc 6739 853c 6180 343c
000003c0: 0c05 883c 1313 c7bc 723d 623c 7735 843b
000003d0: c87f f1bb a94f 99bc e777 243c baba f4bb
000003e0: ab0d 01bc 1a09 bfbb bce3 583c 6ef7 b43c
000003f0: 77c9 0f3d 7a1b f8bb 9f0d 51b9 99d3 ec38

arith.constant8 f4 [6]
-0.16267717 -0.29616052 -0.16267718 0.07280896 0.060649917 -0.07776164
00000000: d894 26be 5aa2 97be d994 26be dd1c 953d
00000010: 0c6c 783d 7f41 9fbd

tfl.pseudo_qconst i1 [95, 75]
-43 5 -39 -91 -8 -4 -13 23
-2 78 9 19 -12 -38 -64 -19
-27 44 -20 -24 -8 11 -18 -94
58 11 19 -25 -36 10 -21 -22
-74 -4 -36 -9 -25 -11 -39 17
15 36 -25 -54 -8 45 11 -127
-53 7 -44 -5 -2 -21 -119 -50
-62 4 -44 51 -1 3 -44 -14
61 54 -50 55 -3 5 10 -2
51 -2 -6 11 1 -4 -50 -7
5 6 9 3 -16 3 -1 4
-24 -21 8 -1 -25 1 5 -5
5 -21 -16 -99 -10 -53 -8 -1
23 5 -33 -4 2 -70 6 -10
10 -5 10 30 3 -12 11 -35
19 3 -10 -9 2 -127 1 -7
6 -62 -96 -42 -4 -47 25 2
-10 6 -32 14 -8 -4 4 -23
16 -7 -2 -58 2 1 -1 7
-5 40 -4 -1 -4 -7 -7 -19
-5 -13 -8 -2 -6 -9 -6 -50
-14 1 -1 -11 11 -80 2 0
-9 -6 -23 25 -39 -1 -30 -8
-19 -10 -18 -48 -17 -18 -3 6
-9 -17 -18 4 1 -73 -4 -33
-8 1 -20 7 -20 -17 -18 -48
1 -4 -4 -7 -4 -17 -6 8
-28 -127 -13 -1 -13 -5 19 -7
-6 -10 -7 -30 11 8 -11 -24
5 4 30 0 1 -11 -8 14
-75 8 -87 0 17 -47 4 -16
21 -127 -3 -40 2 -11 -13 -42
00000000: d505 d9a5 f8fc f317 fe4e 0913 f4da c0ed
00000010: e52c ece8 f80b eea2 3a0b 13e7 dc0a ebea
00000020: b6fc dcf7 e7f5 d911 0f24 e7ca f82d 0b81
00000030: cb07 d4fb feeb 89ce c204 d433 ff03 d4f2
00000040: 3d36 ce37 fd05 0afe 33fe fa0b 01fc cef9
00000050: 0506 0903 f003 ff04 e8eb 08ff e701 05fb
00000060: 05eb f09d f6cb f8ff 1705 dffc 02ba 06f6
00000070: 0afb 0a1e 03f4 0bdd 1303 f6f7 0281 01f9
00000080: 06c2 a0d6 fcd1 1902 f606 e00e f8fc 04e9
00000090: 10f9 fec6 0201 ff07 fb28 fcff fcf9 f9ed
000000a0: fbf3 f8fe faf7 face f201 fff5 0bb0 0200
000000b0: f7fa e919 d9ff e2f8 edf6 eed0 efee fd06
000000c0: f7ef ee04 01b7 fcdf f801 ec07 ecef eed0
000000d0: 01fc fcf9 fcef fa08 e481 f3ff f3fb 13f9
000000e0: faf6 f9e2 0b08 f5e8 0504 1e00 01f5 f80e
000000f0: b508 a900 11d1 04f0 1581 fdd8 02f5 f3d6

tfl.pseudo_qconst1 i1 [75, 95]
-42 22 -124 14 16 26 -11 45
-73 -56 37 58 -26 -69 33 10
26 43 35 -57 -17 -56 -10 -9
25 -24 -2 -44 45 10 81 -9
5 51 -23 20 8 -29 40 -18
20 45 -64 35 -47 -71 -127 5
40 3 -61 39 -26 -10 1 -25
-37 11 -33 7 46 -88 -100 -1
-35 -68 -1 36 -23 1 7 25
18 -60 2 43 47 7 -26 -25
-6 -35 -65 -77 10 44 -50 -3
52 3 -78 13 -45 27 -6 -47
-34 15 -6 -31 45 1 1 12
-5 -6 87 -12 -36 15 97 15
-51 -3 4 -18 -2 -47 -3 21
-10 -16 -16 -4 9 -21 27 2
9 56 -49 11 10 57 10 -94
-21 48 1 -2 12 23 -106 30
5 1 -4 11 -26 -26 -7 -29
-6 7 -10 17 -27 -10 10 -5
3 3 -10 -6 -10 -4 48 27
0 -37 10 -11 26 11 -6 0
2 -3 5 -20 -29 -33 22 15
37 43 11 -18 -127 -13 -11 -20
-15 -17 18 7 3 21 12 -58
-13 22 9 -59 14 31 -15 -1
-5 -6 -110 0 -85 -3 -41 -6
-11 -7 4 3 -32 10 -9 3
15 -127 -17 6 10 -24 -13 -35
0 -2 -2 -14 15 -14 29 10
-3 9 -2 -57 12 14 1 10
27 -4 22 -7 14 -13 -6 -2
00000000: d616 840e 101a f52d b7c8 253a e6bb 210a
00000010: 1a2b 23c7 efc8 f6f7 19e8 fed4 2d0a 51f7
00000020: 0533 e914 08e3 28ee 142d c023 d1b9 8105
00000030: 2803 c327 e6f6 01e7 db0b df07 2ea8 9cff
00000040: ddbc ff24 e901 0719 12c4 022b 2f07 e6e7
00000050: fadd bfb3 0a2c cefd 3403 b20d d31b fad1
00000060: de0f fae1 2d01 010c fbfa 57f4 dc0f 610f
00000070: cdfd 04ee fed1 fd15 f6f0 f0fc 09eb 1b02
00000080: 0938 cf0b 0a39 0aa2 eb30 01fe 0c17 961e
00000090: 0501 fc0b e6e6 f9e3 fa07 f611 e5f6 0afb
000000a0: 0303 f6fa f6fc 301b 00db 0af5 1a0b fa00
000000b0: 02fd 05ec e3df 160f 252b 0bee 81f3 f5ec
000000c0: f1ef 1207 0315 0cc6 f316 09c5 0e1f f1ff
000000d0: fbfa 9200 abfd d7fa f5f9 0403 e00a f703
000000e0: 0f81 ef06 0ae8 f3dd 00fe fef2 0ff2 1d0a
000000f0: fd09 fec7 0c0e 010a 1bfc 16f9 0ef3 fafe
